checkpoint.pth (torch, 12559 bytes, 4 tensors)

net.0.weight f4 [64, 37]
0	0xbe59d3ee	-0.21272251
1	0xbe02beb9	-0.12768067
2	0x3eaec174	0.34131968
3	0xbedd6863	-0.43243703
4	0xbe5620b3	-0.20910911
5	0xbc8459df	-0.016156135
6	0xbe7e74ce	-0.24849245
7	0x3e0efe1b	0.13964121
8	0x3e6e2aea	0.23258558
9	0xbf420ee4	-0.7580397
10	0xbd92f8b2	-0.07176341
11	0xbea89e45	-0.3293325
12	0x3e72103b	0.23639004
13	0x3dc4cd88	0.096095145
14	0xbf62b310	-0.8855448
15	0x3e229032	0.15875319
16	0xbecbbaf5	-0.39791074
17	0x3b1cee42	0.0023945724
18	0xbeb5ecfe	-0.35532373
19	0xbe6f6e6c	-0.23381966
20	0xbe44dcff	-0.19224928
21	0xbcfff23b	-0.031243434
22	0x3e910916	0.28327245
23	0xbe7498d0	-0.23886418
24	0xbead87f0	-0.33892775
25	0x3d49b5e7	0.04924574
26	0xbeac526d	-0.33656636
27	0x3d853eee	0.065061435
28	0xbf062538	-0.5240054
29	0xbe105515	-0.14094956
30	0x3dd04f99	0.10171432
31	0xbe371cb3	-0.17882042
32	0x3e315df9	0.17321004
33	0xbea140d2	-0.31494766
34	0xbf1acc66	-0.6046814
35	0x3db19044	0.086700946
36	0xbc19acf7	-0.009379617
37	0x3dacf24d	0.08444653
38	0x3defd272	0.11710061
39	0x3cacbd2b	0.021086296
40	0x3e428e63	0.18999629
41	0x3d74723b	0.05967925
42	0x3d8f29b2	0.069903746
43	0x3e4066e2	0.18789247
44	0x3d966489	0.07343394
45	0x3c2b1ce6	0.010443902
46	0x3d6bc486	0.057560466
47	0x3d5e6565	0.054295916
48	0x3cae3faf	0.021270601
49	0x3d8442b3	0.06458034
50	0xbe0d1c1e	-0.13780257
51	0xbdd43816	-0.1036226
52	0xbdc45ba1	-0.09587789
53	0x3e45fc52	0.19334534
54	0x3d1e7f9c	0.038695917
55	0x3ddb6809	0.107132025
56	0x3dd7773d	0.1052079
57	0x3d5af446	0.053455614
58	0x3e30c4fa	0.1726264
59	0xbe086fab	-0.13323848
60	0x3b9cef4a	0.0047892677
61	0xbd896760	-0.0670917
62	0x3d9b8c4b	0.07595118
63	0x3bfeaca9	0.0077720475
64	0x3dda1fbd	0.10650585
65	0xbd45571e	-0.048178785
66	0x3e017b9a	0.12644807
67	0xbc0aa763	-0.00846276
68	0xbdf78415	-0.120857395
69	0xbdada2f3	-0.08478346
70	0x3df309fa	0.11867137
71	0x3db13a11	0.086536534
72	0x3db4d69f	0.08829998
73	0xbdab7c3d	-0.08373306
74	0xbded3347	-0.11582046
75	0xbe485100	-0.19562149
76	0xbd6b8dbc	-0.057508215
77	0xbe8d35dd	-0.27580157
78	0xbd4c669f	-0.049902555
79	0x3db690fa	0.08914371
80	0xbda1534f	-0.07877218
81	0xbd14a4cf	-0.036289986
82	0x3d501505	0.050801296
83	0xbe1ebbd3	-0.15501337
84	0x3e15433b	0.14576428
85	0xbe4eedb1	-0.2020786
86	0x3df1a8a4	0.11799744
87	0xbe5307a8	-0.2060839
88	0xbeab09d6	-0.33405942
89	0xbd931c18	-0.07183093
90	0x3d953312	0.072851315
91	0x3dede4ba	0.11615892
92	0xbe243e0d	-0.16039295
93	0x3baee7f8	0.0053377114
94	0xbdad82e3	-0.0847223
95	0xbdb81988	-0.08989245
96	0x3dd86ffc	0.10568234
97	0xbe288967	-0.16458665
98	0xbe56b47a	-0.20967284
99	0xbdae90d9	-0.08523721
100	0xbe4d984e	-0.20077631
101	0xbcbed045	-0.02329267
102	0xbd2620f3	-0.040558767
103	0xbeab0ba3	-0.33407316
104	0x3af4e825	0.0018684907
105	0xbe2650a7	-0.16241704
106	0xbcc6ab85	-0.024251709
107	0xbea304ec	-0.31839693
108	0xbeb404cd	-0.35159913
109	0xbe090368	-0.13380206
110	0x3d2edc1a	0.042690374
111	0x3c812a91	0.015767368
112	0xbbe14288	-0.006874386
113	0xbe2d4513	-0.16920881
114	0xbe7769c7	-0.24161445
115	0xbd5d1ea7	-0.05398431
116	0x3c2b7ebf	0.01046723
117	0xbe4040f4	-0.18774778
118	0xbdb90885	-0.09034828
119	0xbe642a2f	-0.22281717
120	0xbd619fad	-0.05508392
121	0xbd231a45	-0.039819974
122	0xbdcffd1d	-0.101556994
123	0xbe149f84	-0.14513975
124	0xbe645c47	-0.22300826
125	0xbe0348c0	-0.1282072
126	0xbe2101dc	-0.15723366
127	0x3bd99cd7	0.006641011
128	0x3c14ac96	0.009074351
129	0x3d5e8436	0.054325305
130	0x3e350974	0.17679387
131	0xbcbcd85d	-0.023052389
132	0xbe394ecc	-0.18096465
133	0x3dc0987e	0.094040856
134	0x3e0695b3	0.13143043
135	0xbd9b27d9	-0.0757596
136	0xbe2d5c6e	-0.1692979
137	0xbe026229	-0.12732758
138	0xbd49b2eb	-0.049242895
139	0xbd7455d4	-0.059652165
140	0x3d8bde9f	0.06829571
141	0xbe18ea7b	-0.14933197
142	0x3d2011b1	0.03907937
143	0x3ca197ce	0.019725706
144	0xbdb9d995	-0.090747036
145	0x3aef7459	0.0018268927
146	0x3cbb642f	0.02287492
147	0x3dab2c97	0.08358114
148	0x3df58e5f	0.11990046
149	0xbe0ffd1d	-0.14061399
150	0x3dfbd169	0.12295801
151	0xbc8d01f0	-0.017212838
152	0xbbb996cc	-0.0056637283
153	0xbdb64e5f	-0.08901667
154	0x3d92c0aa	0.07165654
155	0xba7332b4	-0.000927727
156	0x3dc0974d	0.09403858
157	0x3cdbe325	0.02684171
158	0x3d8fc7bc	0.07020518
159	0xb83466c0	-4.3011038e-05
160	0x3d8d0b62	0.06886937
161	0x3d8a104d	0.067413904
162	0xbe0ddd81	-0.13854028
163	0xbe3aafd6	-0.18231139
164	0x3e073722	0.13204625
165	0x3c73b051	0.01487358
166	0xbccf1f6a	-0.025283534
167	0x3e076b02	0.13224414
168	0x3d291bc4	0.041286245
169	0xbe0e0349	-0.1386844
170	0xbdc851ea	-0.09781249
171	0x3daf5544	0.08561185
172	0x3ba0ff5d	0.004913254
173	0xbd1e20ed	-0.03860562
174	0xbde8f66c	-0.11375126
175	0xbd2abc0f	-0.041683253
176	0xbda6b897	-0.081406765
177	0x3cc4f5dd	0.024043018
178	0x3e077cbe	0.13231179
179	0xbe2d9a84	-0.16953474
180	0x3dc35964	0.09538534
181	0x3e1013f4	0.14070112
182	0xbc346039	-0.011009269
183	0xbdd8971c	-0.10575697
184	0x3cfcdedd	0.030867988
185	0x3dd98e7a	0.106228784
186	0x3be8ba56	0.007102291
187	0xbd85eb1f	-0.065389864
188	0xbe28d608	-0.16487896
189	0xbcb06a98	-0.021535203
190	0xbd72ae1f	-0.059248086
191	0xbcf1e633	-0.029528713
192	0x3a9ff419	0.0012203484
193	0x3db168fc	0.08662602
194	0xbd519287	-0.05116513
195	0xbbd03bc1	-0.0063547795
196	0xbd773158	-0.060349792
197	0xbe07f371	-0.1327646
198	0x3db8fac5	0.090322055
199	0x3dbd4cda	0.09243174
200	0xbdd790fe	-0.10525702
201	0xbd11a4fb	-0.03555773
202	0x3c15288a	0.009103904
203	0x3c7e75ec	0.015531044
204	0xbba7a424	-0.0051160026
205	0xbd81284c	-0.06306514
206	0xbe3f261c	-0.18666881
207	0xbdd42d15	-0.10360161
208	0xbda5eb1b	-0.081014834
209	0x3caed545	0.02134193
210	0x3d82de50	0.06390059
211	0x3cd2033c	0.025636308
212	0xbd0939bf	-0.033502337
213	0xbe265c5a	-0.16246167
214	0xbc11edda	-0.008906806
215	0x3d520eb8	0.05128357
216	0x3cc84272	0.024445746
217	0x3d8bbd5e	0.06823228
218	0x3d23e22a	0.04001061
219	0xbdcbcf55	-0.09951655
220	0xbd2afffa	-0.041748025
221	0x3d98c7f2	0.074600115
222	0xbd471013	-0.048599314
223	0x3c8c4a56	0.01712529
224	0xbea5bddf	-0.32371423
225	0xbe01e184	-0.12683684
226	0xbe094a02	-0.13407138
227	0x3da0b886	0.07847695
228	0xbe932131	-0.2873626
229	0xbdd70959	-0.1049983
230	0xbe360a5c	-0.1777739
231	0xbe26be66	-0.16283569
232	0x3e2868a4	0.16446167
233	0x3e1e59ac	0.15463895
234	0xbcf324d0	-0.02968064
235	0xbebad5db	-0.36491284
236	0xbe11ed9d	-0.14250799
237	0xbc68702b	-0.014186899
238	0x3d32254b	0.043492597
239	0xbea409ad	-0.32038632
240	0xbe3238ba	-0.17404452
241	0xbe7a94b5	-0.2447079
242	0x3cd688dc	0.026188307
243	0xbe2ad826	-0.16684017
244	0x3b2b0b33	0.0026099205
245	0xbea5b654	-0.32365668
246	0xbe2f51f7	-0.17121111
247	0x3df66e2c	0.12032732
248	0xbe2ad222	-0.16681722
249	0x3d51b4bd	0.051197756
250	0xbe86317e	-0.26209635
251	0xbee39107	-0.44446585
252	0x3dc8f117	0.09811609
253	0xbe115da9	-0.14195885
254	0xbe0072d7	-0.12543808
255	0xbec8949f	-0.3917589

net.0.bias f4 [64]
0	0xbe707240	-0.23481083
1	0x3e39aad2	0.18131569
2	0x3dd295ee	0.10282503
3	0xbd2a3d8b	-0.0415626
4	0xbde9d221	-0.11417032
5	0xbdb18598	-0.08668059
6	0xbd9738b8	-0.07383865
7	0xbd464a82	-0.0484109
8	0xbe552621	-0.20815326
9	0xbd00ea05	-0.03147318
10	0xbdcbb1e3	-0.099460386
11	0xbdb24f93	-0.08706584
12	0xbd8bfa38	-0.06834835
13	0xbd526b1d	-0.051371682
14	0xbe6e9afc	-0.2330131
15	0xbd9f1cd6	-0.07769172
16	0xbd7edb97	-0.062221136
17	0x3da0530a	0.078283384
18	0x3e33460d	0.17507191
19	0xbe274b7b	-0.16337387
20	0x3d4a6903	0.049416553
21	0xbdcf0cb4	-0.10109845
22	0xbe2f0010	-0.17089868
23	0xbd5340c4	-0.051575437
24	0xbd32b148	-0.0436261
25	0xbe34c507	-0.17653285
26	0xbe57b7ec	-0.21066254
27	0xbe04811b	-0.12939875
28	0x3e3a462e	0.18190834
29	0x3d953944	0.07286313
30	0xbd84c08b	-0.06482037
31	0xbe3dbfde	-0.18530223
32	0xbdcbd7fc	-0.09953305
33	0xbdfc8039	-0.12329144
34	0xbcd185a9	-0.02557643
35	0x3cb2e778	0.021838889
36	0x3dd22bca	0.10262258
37	0xbdf3ebc1	-0.11910201
38	0x3d9e35b5	0.077250876
39	0xbe16c623	-0.1472402
40	0xbe2da726	-0.16958293
41	0x3db73d19	0.089472
42	0xbe04a168	-0.12952197
43	0x3cc97d00	0.024595737
44	0x3e527f70	0.20556426
45	0xbe36c031	-0.17846753
46	0xbe1ed123	-0.15509467
47	0x3d94bc9b	0.07262536
48	0xbe47467d	-0.19460483
49	0x3d84b4c0	0.06479788
50	0xbdfc4390	-0.12317574
51	0x3d60061e	0.054693334
52	0xbe93132f	-0.28725573
53	0xbe061e00	-0.13097382
54	0xbdf5fedf	-0.120115034
55	0x3d32ea07	0.043680217
56	0x3dc34010	0.09533703
57	0x3dc8c770	0.09803665
58	0xbcbe408f	-0.023224143
59	0xbd8628de	-0.065507635
60	0xbbd7bbdf	-0.0065836753
61	0xbc9880da	-0.018616129
62	0xbe197ce0	-0.14989042
63	0xbe8a3226	-0.26991385

net.2.weight f4 [4, 64]
0	0xbeb11898	-0.34589076
1	0x3dac9060	0.08425975
2	0xbd9e0243	-0.07715275
3	0x3d2d3c84	0.04229404
4	0xb95e29d8	-0.00021187158
5	0xbbc07886	-0.0058737425
6	0x3e1ec790	0.15505815
7	0xbe0815fd	-0.13289638
8	0xbd290b72	-0.04127068
9	0x3dc45af0	0.095876575
10	0x3d5c272e	0.053748302
11	0xbdc0c940	-0.094133854
12	0x3c0bf5c5	0.008542483
13	0xbd723265	-0.05913009
14	0x3de7c4f1	0.113168605
15	0x3c1371b9	0.008999282
16	0x3c3673ba	0.01113599
17	0x3df1f73a	0.11814733
18	0x3d562bb4	0.052287772
19	0x3cc0b724	0.023524828
20	0x3d386103	0.045014393
21	0x3d320a5d	0.043466914
22	0xbe27b821	-0.16378833
23	0xbc651014	-0.013980884
24	0x3d910dd7	0.07082718
25	0x3dd0c3a9	0.10193569
26	0x3dbd0fc1	0.092315204
27	0xbd1f61eb	-0.03891174
28	0x3df1aeb6	0.118009016
29	0x3d284f3e	0.041091196
30	0x3cf4345b	0.029810121
31	0x3db3b6a3	0.087750696
32	0x3d17a22e	0.0370199
33	0xbcc32edd	-0.023826057
34	0x3d9e6a4c	0.07735118
35	0xbe4edef6	-0.2020224
36	0x3daf0ae1	0.08546997
37	0xbe4da667	-0.20083009
38	0x3d966f00	0.0734539
39	0xbe03f5e8	-0.12886775
40	0xbbaddc59	-0.0053058085
41	0x3dab5822	0.083664194
42	0xbd28a3fe	-0.04117202
43	0xbd8747b2	-0.06605472
44	0x3dbd4dbf	0.092433445
45	0x3d89eeb9	0.06734986
46	0x3c58367f	0.013196587
47	0xbc78e22d	-0.015190643
48	0xbca07a9f	-0.01958972
49	0xbc71cb35	-0.014757921
50	0x3dde5c0b	0.108573996
51	0x3c18c3d6	0.009324035
52	0xbd5b0b7c	-0.05347775
53	0xbe085104	-0.13312155
54	0xbcdb5eca	-0.026778597
55	0x3d85997f	0.06523418
56	0x3dad53eb	0.08463272
57	0x3d81b966	0.0633419
58	0xbcc53681	-0.024073841
59	0xbc494790	-0.012285128
60	0xbeda8a94	-0.42683852
61	0xbd781cca	-0.06057433
62	0xbe834b43	-0.25643358
63	0xbca422ac	-0.020036064
64	0x3dd7cabc	0.105367154
65	0x3d326cf5	0.04356094
66	0x3daec328	0.08533317
67	0x3bf50b22	0.007478134
68	0x3d8eb7e7	0.0696867
69	0xbd3e7a72	-0.04650349
70	0x3db9abb4	0.09065953
71	0x3d9b336f	0.075781696
72	0xbda1394a	-0.07872255
73	0x3d83d5be	0.064372525
74	0xbd8a13cb	-0.067420565
75	0xbc1dd859	-0.009634101
76	0x3d14c467	0.036320116
77	0x3af07e0d	0.0018348113
78	0x3c06f83c	0.008237895
79	0x3c5cb559	0.013470971
80	0xbd076909	-0.033059154
81	0x3e41950b	0.18904512
82	0x3d977332	0.07395019
83	0xbdd4bc5c	-0.10387489
84	0xbca38d3a	-0.019964803
85	0xbbf507d4	-0.00747774
86	0x3d6afa54	0.057367638
87	0xbbae3a22	-0.0053169886
88	0x3d42bc3e	0.047542803
89	0xbcac64ad	-0.0210441
90	0xbe2d3a40	-0.16916752
91	0x3cb54273	0.022126412
92	0x3d0b06e2	0.03394211
93	0x3c2d1318	0.010563634
94	0xbc63b5ac	-0.013898294
95	0xbc8e1339	-0.01734315
96	0x3d823829	0.06358368
97	0x3b19a1c8	0.0023442376
98	0xbd3b84f4	-0.04578109
99	0xbd3d8370	-0.046267927
100	0x3d48b63d	0.04900192
101	0xbd29db00	-0.04146862
102	0x3e0539e7	0.13010369
103	0x3cc1ba1d	0.023648316
104	0x3d10ea5c	0.035379753
105	0x3d74b809	0.059745822
106	0x3de82c58	0.11336583
107	0xbc537055	-0.0129052
108	0x3d8b10c4	0.06790307
109	0x3dd903e3	0.105964445
110	0xbd59c5a0	-0.053166986
111	0x3dca288f	0.09871017
112	0x3d2f648f	0.04282051
113	0xbb4e1cf9	-0.0031450375
114	0x3d1b6bcf	0.03794461
115	0x3d55ac73	0.052166414
116	0xbe95fbe1	-0.2929373
117	0x3c6243b7	0.01381009
118	0x3f0af627	0.5428185
119	0xbd5826ed	-0.052771498
120	0x3d801205	0.06253437
121	0xba081ac9	-0.00051919796
122	0x3d66a85a	0.056312896
123	0xbe270d59	-0.16313685
124	0xbe13f368	-0.14448321
125	0x3d08addc	0.03336893
126	0x3dea36ba	0.114362195
127	0xbd859bae	-0.06523834
128	0xbef40745	-0.47661796
129	0x3d87bf0c	0.06628236
130	0x3ddcd459	0.107826896
131	0xbcaa517f	-0.020790813
132	0x3c72e5d1	0.0148253
133	0x3ceb7375	0.028741578
134	0x3e274cf8	0.16337955
135	0x3d9ae5e7	0.07563382
136	0x3d630626	0.055425785
137	0x3d3b3106	0.04570105
138	0x3c8f49ca	0.01749124
139	0x3894c6e8	7.094239e-05
140	0xbb9fe8c5	-0.004880043
141	0x3d00de80	0.031462193
142	0x3e58fa13	0.21189146
143	0xbd9c57c6	-0.07633929
144	0xbe0b9e58	-0.13634622
145	0x3e0cc7da	0.13748112
146	0xbcf4f0f6	-0.029900055
147	0x3d177299	0.036974523
148	0x3c8c0144	0.017090447
149	0x3d540172	0.05175919
150	0x3dcce8d5	0.10005347
151	0xbd11f939	-0.035638068
152	0xbc5e40c2	-0.013565244
153	0xbd909cc3	-0.0706115
154	0xbd82c181	-0.06384564
155	0xbd208f28	-0.039199024
156	0x3d3abcb6	0.045590125
157	0xbd009433	-0.031391334
158	0xbcdf25f2	-0.027239773
159	0xbcb3996e	-0.021923747
160	0x3cb015dd	0.0214948
161	0x3d832c73	0.064049624
162	0x3c986118	0.018600985
163	0xbdda6af4	-0.10664931
164	0x3d8f3f89	0.0699454
165	0x3dcfb963	0.101427816
166	0x3ddebadc	0.10875484
167	0xbd593c2c	-0.0530359
168	0xbd895459	-0.06705541
169	0x3cc1a2d4	0.023637213
170	0xbd1be60c	-0.038061187
171	0x3d4bd03b	0.04975913
172	0xbd113726	-0.035452984
173	0x3e19934c	0.14997596
174	0x3d49d7cf	0.049278077
175	0x3d5ad6ad	0.053427387
176	0xbc5f4130	-0.013626382
177	0xbdc18a14	-0.094501644
178	0x3e9a20f7	0.30103275
179	0x3d1671b5	0.036729533
180	0xbb3a2b3e	-0.0028407122
181	0xbde4175c	-0.11137268
182	0xbd47c67a	-0.048773266
183	0xbc75b9f5	-0.014997949
184	0x3d946df4	0.072475344
185	0x3d2fe51d	0.04294311
186	0x3d4b958b	0.049703162
187	0xbcb990f8	-0.022652134
188	0xbd9692d8	-0.07352227
189	0xbd45d7f6	-0.04830166
190	0xbd4eb9ed	-0.05047028
191	0xbd9059fa	-0.07048412
192	0xbe157263	-0.14594416
193	0x3d91f560	0.0712688
194	0x3cacf5e2	0.02111334
195	0xbc210d68	-0.009829856
196	0x3cfe7c8b	0.031065246
197	0xbc3f5973	-0.011679041
198	0x3e21b1be	0.1579046
199	0x3cd5ad61	0.02608365
200	0xb9324e3d	-0.00017004549
201	0x3dc6eba8	0.097129166
202	0xbc8af609	-0.016963022
203	0xbc83c6b7	-0.016085966
204	0x3da00fd6	0.078155205
205	0x3d019e5e	0.03164517
206	0x3e917fd6	0.28417844
207	0x3d47e10f	0.048798617
208	0xbd85c4c8	-0.06531674
209	0x3e671cc0	0.22569561
210	0x3d60d629	0.05489174
211	0xbca40d73	-0.020025944
212	0xbd2ce944	-0.042214647
213	0x3d572551	0.052525822
214	0xbbaad064	-0.0052128304
215	0xbd138956	-0.036019646
216	0x3d949c39	0.072563596
217	0xbd69be07	-0.05706599
218	0xbca5ee80	-0.020255327
219	0x3aa1688f	0.0012314486
220	0x3d2710fd	0.040787686
221	0xbd48bd8f	-0.049008902
222	0xbe0314f6	-0.12800965
223	0xbd8aad1b	-0.067712985
224	0x3a0490b4	0.0005056963
225	0xbd24e75a	-0.040259697
226	0xbbc36875	-0.00596338
227	0x3d072d11	0.033001963
228	0xbc667d9e	-0.014068035
229	0xbce735b4	-0.02822385
230	0xbd32a6bb	-0.043616038
231	0xbc582b7c	-0.013193961
232	0x3d7215e7	0.05910292
233	0xbc988860	-0.018619716
234	0xbd0e598f	-0.03475338
235	0x3d9815ce	0.07426034
236	0x3ba4dbf6	0.005031104
237	0x3c81a5b6	0.015826087
238	0x3d17ab10	0.037028372
239	0x3d620c15	0.055187304
240	0xbda6810a	-0.08130081
241	0xbd258c96	-0.040417276
242	0xbd1bf35e	-0.03807389
243	0x3da5e7c5	0.08100847
244	0xbc192377	-0.009346834
245	0xbd9db150	-0.07699835
246	0x3dc9a972	0.09846772
247	0xbd47a9d8	-0.04874596
248	0x3d67c60e	0.056585364
249	0xbcd0552a	-0.025431234
250	0x3c447ceb	0.011992673
251	0xbb7c7a79	-0.0038525148
252	0xbf23068b	-0.6368186
253	0x3d15d96c	0.036584303
254	0xbd262cf3	-0.04057021
255	0x3d5b18ca	0.053490438

net.2.bias f4 [4]
0	0x3d1592e6	0.036517046
1	0x3da8c6d8	0.082410514
2	0x3e17f0ba	0.14837924
3	0x3e2005de	0.15627238
