checkpoint.pth (torch, 12567 bytes, 4 tensors)

net.0.weight f4 [64, 37]
000000 87 75 2b 3e 45 6e 88 be 61 ab 5f bf db a3 47 bf
       0.16744052 -0.2664663 -0.8737088 -0.779844
000010 ab e7 dc bf 04 aa 97 be 5f d4 a7 be 0f 45 5e 3e
       -1.72582 -0.296219 -0.32779214 0.21706031
000020 b3 09 eb be 97 df d8 be 79 9a bf be 12 39 6c bf
       -0.45905837 -0.42358086 -0.3742254 -0.9227458
000030 21 7f 6e 3e c0 44 a1 3c 28 bf 9f 3e 38 11 83 3e
       0.23290683 0.019686103 0.31200528 0.25599074
000040 f7 96 1b bf 4c 9a 1e bf 94 74 fd be f2 6d e3 bf
       -0.6077723 -0.6195419 -0.49503005 -1.7767928
000050 db 96 4c bb 83 19 d0 3d a9 49 8c be e3 8c d2 be
       -0.0031217847 0.10161116 -0.27399948 -0.41123113
000060 10 83 9b 3e 6f 88 f1 be de d7 c3 be 47 59 c1 3e
       0.3037343 -0.47174403 -0.3825063 0.37763426
000070 e6 f6 b6 be 1c 58 09 bf ba fc 2f 3e 59 88 fa be
       -0.35735244 -0.5365007 0.17186251 -0.4893215
000080 c3 31 37 bf ef 4b 84 be 6e e2 8a 3e 61 6a 11 3d
       -0.71560305 -0.25839183 0.27125877 0.03550184
000090 bc 61 48 bd 38 16 a1 3e d5 b4 8e be 8c fb 7b be
       -0.04892133 0.31462264 -0.2787234 -0.24607676
0000a0 50 01 2d bf d6 ae 9f bf 3c 51 27 bf a9 b5 49 be
       -0.6758013 -1.2475231 -0.6535833 -0.19698204
0000b0 c3 36 b5 3e 0d e6 84 be aa a4 42 3e ec 83 86 be
       0.35393342 -0.25956765 0.19008127 -0.26272523
0000c0 c7 e5 99 be 23 01 87 3c c1 fe b7 bd 30 ab de bd
       -0.3005812 0.016480034 -0.08984137 -0.10872495
0000d0 d7 29 52 3e ad 9c 93 be 1b 60 b3 be 03 20 a9 bd
       0.20523773 -0.28830472 -0.3503426 -0.08258059
0000e0 2b a8 69 bd fd f6 37 be cf 06 c7 bd b9 d2 81 bd
       -0.057045143 -0.17965312 -0.097180955 -0.0633902
0000f0 dc c8 2b be fe c8 ef 3e 5f 1f 13 bf ae 4e 4c be
       -0.1677584 0.46833032 -0.57469743 -0.19951889
000100 b0 f0 05 3e cf b3 d6 bd 46 f2 14 3e d3 81 e6 be
       0.13080096 -0.104835145 0.14545545 -0.45020923
000110 d3 bc 51 be 36 67 b2 bc 04 73 a4 3c 56 cf 84 3d
       -0.20482187 -0.02177773 0.020074375 0.06484859
000120 d8 c4 b0 3c 0e dc 8a 3c 4c aa 38 be c1 90 97 3c
       0.021578237 0.016950633 -0.18033713 0.018501641
000130 ff f6 04 bf 82 04 0e bf 5f 28 4f bf 19 9d 18 bf
       -0.51939386 -0.5547563 -0.80920976 -0.5961471
000140 3d f5 fd be f0 79 a4 3e 43 01 3c bf eb 99 16 c0
       -0.49601164 0.3212428 -0.73439425 -2.3531444
000150 98 1c b0 be 14 30 c7 3d a6 83 00 be 51 fa 42 bf
       -0.34396815 0.09725967 -0.1255022 -0.761632
000160 74 9d b6 be 64 1a b3 3d ae 43 bd be e2 ac 96 3d
       -0.35667002 0.08745268 -0.36965698 0.073571935
000170 f5 00 51 bf 60 f3 81 bf 4b ec b3 bd de fa 3e bf
       -0.81642085 -1.0152397 -0.08785304 -0.7460154
000180 e5 70 49 3e 9c 05 36 bf ba 49 1f c0 3e ea 3c bf
       0.19671972 -0.7110231 -2.488875 -0.73794925
000190 56 a8 1c be 05 50 61 3e bc 24 2e bf 48 7f 15 c0
       -0.1529859 0.22003181 -0.680248 -2.3358936
0001a0 6a f0 0d bf d5 8e b5 be be 14 77 3e 03 7e fe be
       -0.5544497 -0.35460535 0.24129006 -0.49705514
0001b0 c2 00 2a c0 ef 25 15 be 64 11 fa 3d 7f 7d f2 bc
       -2.6562963 -0.14565252 0.12210348 -0.029600857
0001c0 a2 95 32 3d ce aa c5 3d b5 ac bd 3d 66 14 70 3d
       0.043599732 0.09651719 0.09261457 0.058613203
0001d0 a2 e9 7d bd 60 a6 f7 3c 52 fe 8f 3d d8 46 38 3e
       -0.061990388 0.030230701 0.070309296 0.17995775
0001e0 e9 e3 5b 3e 0a 28 85 b9 12 8a a6 3c 83 44 7e 3d
       0.2147366 -0.00025397568 0.020329509 0.062077057
0001f0 72 f6 1b 3d 6e a9 6d bc 2b 82 24 bc 87 f9 6e 3d
       0.038076825 -0.014505727 -0.0100408 0.058343437
000200 f0 d9 b8 bc 4a d4 98 3d 8c 9e 2e bd cd ef 36 3f
       -0.022564858 0.07462366 -0.04263167 0.71459657
000210 11 71 64 bf 9d f2 3a bf 53 8c 65 bf 58 8e 96 c0
       -0.89235026 -0.7302645 -0.8966724 -4.704876
000220 e9 37 dc bd ee 0d 67 bd d0 2b 14 3e a2 61 bb 3d
       -0.107528515 -0.05640977 0.14469838 0.09149481
000230 b1 8b 89 3e d0 7e 19 bd f3 6c b7 ba ff 08 d2 3d
       0.2686439 -0.037474453 -0.0013994261 0.10255622
000240 32 b7 5d 3d c9 aa cb 3d 9f 65 4b bd 83 b4 db 3b
       0.054129787 0.09944684 -0.04965746 0.0067048683
000250 e8 e5 68 bd e7 c9 3e be 13 6e 23 3d 5d a4 bb bb
       -0.05685988 -0.18631707 0.039899897 -0.0057263807
000260 3c 28 b7 bd 2d e9 6b 3c a7 a3 6f bd 34 76 d2 bc
       -0.08943221 0.014398855 -0.05850568 -0.02569113
000270 c7 5c aa bd 3c 7d 37 be a5 2a 3f be 1b 76 1a bd
       -0.08318477 -0.17918867 -0.18668611 -0.03771029
000280 ac 4d cc 3c 97 b8 1b be cb a8 ac bc 76 0f 2a be
       0.02493938 -0.15207134 -0.02107658 -0.1660746
000290 25 19 dd bc f5 de 38 bd af ec 87 bd f7 ea cb 3c
       -0.026989529 -0.045134503 -0.06636941 0.024892313
0002a0 e9 e5 32 be 12 15 f1 bd 70 72 93 bc aa e5 47 be
       -0.17470516 -0.11771597 -0.017998904 -0.19521204
0002b0 e6 46 7e bb 23 59 dd bd b9 75 11 be f2 d9 bb bc
       -0.0038799583 -0.10808017 -0.14205064 -0.022931073
0002c0 22 c2 1a be d6 af d0 3d 3a 0d fd 3c 2a 09 02 be
       -0.15113118 0.10189788 0.030890096 -0.12698808
0002d0 36 e7 38 bd 38 fb 26 be 85 59 81 be 15 84 02 3d
       -0.045142375 -0.1630677 -0.2526361 0.031864244
0002e0 84 99 18 bc 96 e4 2c be 8d 67 80 3e e6 2b 73 be
       -0.009313945 -0.16884074 0.25079003 -0.23747215
0002f0 0f c8 01 bf 08 b1 28 3d 1c 41 30 3c 9e 3b 92 be
       -0.5069589 0.041184455 0.010757711 -0.2856111
000300 69 dc b0 be f4 83 6c be 0a 11 fd bf cb 5a 64 3e
       -0.3454316 -0.23097211 -1.9770825 0.2230026
000310 b9 1d bf be 91 4c be be ad 54 16 bf ca 07 7c bf
       -0.37327364 -0.3716779 -0.58722955 -0.98449385
000320 5d 50 b5 bc 0c 40 a4 be f0 f2 af be 18 82 95 be
       -0.022133047 -0.32080114 -0.34365034 -0.29200816
000330 5c b0 08 bf 1d 7b 1e bf 98 c5 14 3e fa ab ea be
       -0.53394103 -0.61906606 0.14528501 -0.45834333
000340 25 fb c8 3e 2d f8 d9 be 92 cc 56 3d ed 44 9e bd
       0.39254108 -0.42572156 0.052441187 -0.0772799
000350 eb 21 f4 be 9e 3b cd be 87 63 7c bf 45 b2 d7 3d
       -0.47682127 -0.40084547 -0.98589367 0.10532049
000360 f3 fc 92 be 1d 6e 9a be 63 eb c9 be de b9 ad bf
       -0.2870861 -0.30162135 -0.39437398 -1.3572347
000370 e1 3c 25 3e 87 e9 80 bd 0d 4e 1e be 6f e7 a4 bd
       0.16136505 -0.06294542 -0.15459462 -0.08051955
000380 ee 16 73 3b 62 54 99 bc 50 8a 0e 3e d9 3f 9f 3e
       0.0037092525 -0.018716995 0.1391995 0.311034
000390 c7 8a d9 be 40 a5 01 bf 5b 8b 5d bf 9e 29 83 c0
       -0.4248869 -0.50642776 -0.86540765 -4.09883
0003a0 9a c9 19 3d b6 ca db 3d 46 50 85 bd 87 03 0a 3e
       0.037545778 0.107320234 -0.065094516 0.13477908
0003b0 6e 2c 7b 3c 3f 04 b0 be c2 15 0b bd eb bc b5 3d
       0.015330417 -0.3437824 -0.033956297 0.08873924
0003c0 19 98 90 3e 90 4c bd 3e c6 72 3c 3e 36 81 a2 bd
       0.2824104 0.36972475 0.18403158 -0.07934801
0003d0 0c 25 d9 be b8 75 23 bf d7 d3 ff bf f2 29 2d be
       -0.42411077 -0.638515 -1.9986523 -0.16910532
0003e0 ff 96 27 3e 6f fd 61 3e 6c 45 1b 3e f1 d8 aa 3e
       0.16366194 0.22069333 0.15163201 0.33368638
0003f0 aa 07 4b 3e 85 ce ba be 97 e5 18 bf 32 24 1e bf
       0.19827142 -0.36485687 -0.59725326 -0.6177398

net.0.bias f4 [64]
000000 ca f2 a0 be e4 e7 31 be 6d 1e c8 bd d6 7a 20 3d
       -0.31435233 -0.17373616 -0.09771428 0.039179645
000010 30 cd 5b be 54 b3 95 be 32 26 66 bd a8 02 62 be
       -0.21464992 -0.2923838 -0.05618877 -0.22071326
000020 aa a9 bd be f8 b6 bc be 53 58 9b be c8 28 88 be
       -0.37043506 -0.36858344 -0.30340824 -0.26593614
000030 ea 8b 9e bc 42 c0 92 be 5a 68 7d be 53 52 ad be
       -0.019353826 -0.28662306 -0.24746838 -0.3385187
000040 db e1 a0 be c0 e9 6a 3c 26 4f d0 bc 64 ae ab 3c
       -0.31422314 0.014337957 -0.025428366 0.02095718
000050 35 bf 5f bd e2 0c bf be f7 de ce be 4f 23 7d be
       -0.05462571 -0.37314516 -0.40404484 -0.247205
000060 07 bc c4 be 08 0e bd be 2b 72 af be 30 5e 0b be
       -0.38424703 -0.36924767 -0.3426679 -0.13610148
000070 6e 3a 2e 3e 4d 7d 94 be 73 15 a7 be 9a d1 da be
       0.17014477 -0.29001847 -0.32633552 -0.42738038
000080 de d5 73 be fd 9a c6 bd e2 5b 0f bd 1e fb c8 bd
       -0.23812053 -0.096975304 -0.034999736 -0.09813522
000090 4e 4c 60 bd 53 9e 56 be 5a 12 22 be f2 4b 25 bc
       -0.05476027 -0.20958833 -0.15827313 -0.010088908
0000a0 8a 08 e6 be 73 e2 a1 bd 49 b3 c8 be 86 47 7c bd
       -0.4492839 -0.0790452 -0.39199284 -0.061591648
0000b0 a2 c2 9c bd 96 6f 03 bf 65 d7 80 be 6b 19 b6 bc
       -0.07654311 -0.5134214 -0.25164333 -0.022228917
0000c0 d4 6c 99 be 82 7a 8c be 40 c8 96 be ab 47 b9 be
       -0.29965842 -0.27437216 -0.29449654 -0.3618749
0000d0 8a 5a 06 bf 7f f4 3a be 82 95 67 be 63 43 43 be
       -0.524819 -0.1825733 -0.22615626 -0.19068675
0000e0 07 65 6b be fc 38 25 be bd 6b 96 be 11 63 a3 3d
       -0.22987758 -0.16135019 -0.29379073 0.0797788
0000f0 33 ee 02 bf 32 b5 7b be d5 d1 86 be 70 63 00 3d
       -0.51144713 -0.2458084 -0.26331964 0.03134483

net.2.weight f4 [4, 64]
000000 4e ed 57 3d e2 9b c6 3d ba 24 84 3e 74 95 23 3e
       0.052716546 0.09697701 0.2580927 0.1597498
000010 3b fb 14 bd 85 2e 79 be 0c 3d 29 be ed dc 17 bf
       -0.036372405 -0.24334152 -0.16527194 -0.5932148
000020 ec 22 3e bf fd 47 fe 3e 1f 30 40 3d 3a b4 bb be
       -0.74272037 0.49664298 0.04692089 -0.3666094
000030 82 50 43 3e 54 fd 13 bd 36 55 45 3d bd cd 97 3c
       0.1907368 -0.036130264 0.048176967 0.01853072
000040 02 bf 1a bf 91 69 e8 3d d3 3a f1 3d 40 e0 7b 3e
       -0.60447705 0.1134826 0.11778798 0.24597263
000050 8f 32 93 3d 76 9b 2e 3e 35 d1 95 3e a7 f8 87 3d
       0.07187378 0.17051491 0.29261175 0.066392235
000060 ee 74 d3 3c 96 73 a3 ba 40 82 e2 3e ae 41 37 bf
       0.025812592 -0.001247036 0.44239998 -0.71584594
000070 66 4b c4 3d 37 51 6e 3b a9 9c d2 3d 09 67 bc bc
       0.095846936 0.0036364326 0.10283787 -0.02299835
000080 1f 6e 13 3c 57 52 a9 bd fb 71 08 3e 90 82 06 be
       0.008998423 -0.08267658 0.1332473 -0.13135743
000090 a0 ef 1d bc a1 02 fe 3b bd fc f7 bd 8a 9a 90 be
       -0.009639651 0.0077517782 -0.12108753 -0.28242904
0000a0 a1 04 b2 3d d0 08 04 3d 75 91 c0 3d c1 2a e3 3d
       0.08692289 0.032234967 0.09402744 0.11092139
0000b0 b5 05 33 3e 98 8d 05 3e 1d f6 f2 bb 92 5d 8d 3e
       0.17482646 0.13042295 -0.007414593 0.2761045
0000c0 c5 60 ff be f7 1c 85 ba e1 76 28 3e e6 df 52 3e
       -0.49878517 -0.0010155727 0.16451599 0.20593223
0000d0 c0 7c b7 3c eb 03 5b 3e 59 17 7f 3b c1 e0 5e 3d
       0.022398353 0.21388213 0.0038923828 0.05441356
0000e0 f6 5d b0 3d d5 b1 b0 bc 82 73 f9 bc be 7a 91 3e
       0.086116716 -0.021569172 -0.030450586 0.28413957
0000f0 3e 09 17 bd d6 3e 88 bb a0 12 20 bc bd 6d f3 3e
       -0.03687405 -0.0041578813 -0.009770066 0.4754466
000100 94 70 e2 3c 02 f2 7c 3d 6d df 74 3d 89 e0 4e 3e
       0.027641572 0.061754234 0.059783388 0.20202841
000110 62 72 bc 3b 0e 2a 6f 3e 5d 63 63 3d 6c 5c 09 bf
       0.00575094 0.23355886 0.055514682 -0.5365665
000120 a7 10 10 3d 57 ee 71 bd 35 42 cd bd f1 a7 ca be
       0.03517213 -0.05906519 -0.100223936 -0.39581254
000130 11 c7 51 3e 20 35 8e b9 55 77 76 3d 56 44 c7 3d
       0.20486094 -0.00027123932 0.060172398 0.09729831
000140 b1 d3 02 bd 40 8c c1 3d ee 63 7e 3d 57 3b 2d 3e
       -0.031940166 0.09450579 0.06210702 0.16917168
000150 aa 43 aa 3d 4b c1 c2 3e 0a 69 22 3e 11 e2 59 3d
       0.08313687 0.38038096 0.15860382 0.05319411
000160 b4 82 61 bc 5b 72 c5 3c af 0f 65 3e 84 bb ae bd
       -0.013764072 0.02410238 0.22369264 -0.085318595
000170 e0 59 4a 3d ed 33 37 3e ee fa fc 3d f0 37 a0 3d
       0.049402118 0.17890902 0.123525485 0.07823169
000180 10 2b 10 3e d2 f4 2c bd b8 6e c0 3e c3 f5 f4 bd
       0.14078927 -0.042225666 0.37584472 -0.11960938
000190 f0 0f ee bc d1 04 a8 bc 7a 8b a3 3d 4b 27 83 bc
       -0.029060334 -0.02051011 0.079855874 -0.016009947
0001a0 f9 2d 91 3d 98 5a 68 3a 9e af 74 3d 08 1a ad 3e
       0.07088847 0.0008863597 0.059737794 0.33808923
0001b0 10 92 9b 3d c6 be 91 3e c1 8c 21 bc 16 1d f5 3d
       0.075962186 0.2846586 -0.0098602185 0.11968438
0001c0 28 bd 74 bc 34 8f 95 3d 75 cc c6 bd 9b 18 8c 3d
       -0.0149376765 0.073027045 -0.09706966 0.068406306
0001d0 bb 53 0c bc e0 b9 11 3e c9 9f 48 3d d8 7f aa 3d
       -0.008564885 0.14231062 0.048980508 0.083251655
0001e0 7b ce cd 3c 28 c8 02 be 31 64 f3 3e 75 85 46 3e
       0.025122872 -0.12771666 0.47537377 0.19386847
0001f0 aa e5 b1 bc 50 bd ba b9 92 0c c3 3e ac ed af 3e
       -0.021715958 -0.00035617733 0.38095528 0.34361017
000200 0c ff 26 3f 76 13 bc 3d 62 ec 13 bf 2e 06 b5 3e
       0.6523292 0.091833994 -0.57782567 0.35356277
000210 78 6e 3e bc cb 04 d4 3d 85 5f 3d be 30 db c8 bd
       -0.0116230175 0.10352477 -0.18493469 -0.09807432
000220 91 ed 13 be 10 24 f0 be e0 72 24 3d 51 03 e0 be
       -0.14446093 -0.46902514 0.040148616 -0.4375253
000230 28 fc 99 3d 42 62 0c 3e a6 04 70 be 68 45 15 be
       0.07518798 0.13709357 -0.23439273 -0.14577258
000240 a1 43 ce be 29 b4 aa 3d 9a 95 a7 bd e6 0d d6 3e
       -0.40285972 0.08335144 -0.08182831 0.4180748
000250 62 60 fe 3d d5 b6 14 3c e4 30 ae 3e a6 8c 62 bb
       0.12420727 0.009076794 0.34021676 -0.0034568696
000260 c3 23 a5 3c ef d0 00 bf cc ac 83 3c 10 3f bc bd
       0.020158654 -0.5031881 0.016073607 -0.09191716
000270 c2 61 a8 3d 9a 7f 70 be fd 74 96 3e c3 ea d1 bc
       0.08221771 -0.23486176 0.2938613 -0.025624638
000280 be 89 3d 3d ec 91 a9 bd 61 1c d3 3e 52 ae f6 be
       0.04627394 -0.082797855 0.4123259 -0.4817987
000290 e8 05 67 3c ff 5b ed 3c b7 fb 01 3d ba 47 01 be
       0.014100529 0.028974531 0.031734195 -0.12625018
0002a0 9f b1 1f be 16 25 5c 3d c8 71 d6 ba 03 b8 c2 bc
       -0.15595101 0.053746305 -0.0016360814 -0.023769384
0002b0 f0 fd 96 3d a6 65 7b 3e e4 51 10 be c8 c2 81 3e
       0.073726535 0.24550495 -0.14093739 0.2534392
0002c0 03 43 66 3c d5 51 80 be 3e b7 57 3c dc 68 09 3e
       0.014054063 -0.25062433 0.013166247 0.13418907
0002d0 c7 43 1b 3f f3 f2 21 3c 4e 96 0d bf f5 61 a8 bd
       0.60650295 0.009884584 -0.5530747 -0.08221809
0002e0 02 32 f5 3d 04 d4 84 3d 7f a6 ad 3e 77 0b 63 3e
       0.11972429 0.06485751 0.3391609 0.22172342
0002f0 cd 90 67 bf 34 3a c8 3d c1 83 e3 bd 80 ac 45 3e
       -0.90455323 0.09776726 -0.111091144 0.19304085
000300 c5 12 00 3f 15 05 2c 3e 91 4a 4c bf 3a 76 96 3d
       0.5002864 0.16798814 -0.7980128 0.07346769
000310 f6 68 99 3d 8e c7 92 3c da 6b 87 3d ed 99 3b be
       0.07490723 0.01791742 0.06612368 -0.18320437
000320 83 4f 25 bd 14 38 95 bb 98 49 86 3d a7 5b ca bd
       -0.04035903 -0.004553804 0.06557006 -0.098807625
000330 46 85 b5 3e 4a ef 06 3e 93 7b 42 3e 2e c4 9a bd
       0.35453242 0.13177219 0.18992452 -0.075569496
000340 96 82 0b bf 86 47 00 3e af 5f 1f bd ed 89 50 3e
       -0.54496133 0.12527284 -0.03890961 0.20365115
000350 e0 b6 92 3d 46 49 59 3e 89 c6 76 bf d1 04 6e bd
       0.07163787 0.21219358 -0.9639669 -0.058110062
000360 9c 37 65 3e 8a 6f 10 bd cf 55 1d be a5 fd e6 3b
       0.22384495 -0.035262622 -0.15364765 0.0070492798
000370 f1 f1 b0 3d b4 37 a7 3c 9b 19 09 bf d3 4d e9 be
       0.08639897 0.020412304 -0.53554696 -0.45567188
000380 6c 1c 26 bd 4f 13 d2 bc 60 bc 09 3b a9 fa 26 bf
       -0.04055445 -0.025643973 0.0021016821 -0.6522623
000390 ef f0 bd bd 31 99 77 bd f9 17 a8 be 0d 74 08 be
       -0.0927447 -0.06044883 -0.3283079 -0.1332552
0003a0 9b c7 ff 3d ad 4f 93 bd 33 c5 15 bf d3 d5 e4 3e
       0.124892436 -0.07192931 -0.5850403 0.44694385
0003b0 3a ed 1e bb 7a 14 b0 bd a0 5f ce be 8a dc 17 3e
       -0.0024250285 -0.085976556 -0.4030733 0.14830223
0003c0 0e 67 4e bf 9c b6 8f 3c 53 0c e9 3e 38 06 2c 3f
       -0.80626 0.01754313 0.45517215 0.6719699
0003d0 1f 44 54 bc 42 d9 5e 3d 0b 6d 2e bb 7b 18 84 3c
       -0.012955694 0.054406412 -0.0026615288 0.016124954
0003e0 23 39 e3 bb 4b 08 65 be e5 30 11 3f dc 36 cc 3e
       -0.0069343015 -0.22366445 0.5671523 0.39885604
0003f0 05 12 aa bd 96 ab 44 bd dc 0f 02 3d c1 92 54 3e
       -0.08304218 -0.0480152 0.031753406 0.20759107

net.2.bias f4 [4]
000000 00 25 ff 3e f0 98 f8 3e 22 e1 00 3f aa 27 fc 3e
       0.49832916 0.48554182 0.50343525 0.4924901
